sadique/cnn_transformer_sign_model.pth (torch, 678136 bytes, 2 tensors)

fc1.bias f4 [128]
-0.0018316577 -0.0012755009 0.0009102429 -0.00035330935 6.346969e-05 -0.0010151584 -0.0013931362 -0.00060327543
0.0008739886 -0.0007573525 6.695073e-05 -0.00017478173 -0.0011822002 -9.815889e-06 -0.0024887668 -0.00094428944
7.526002e-05 -0.00075865176 -0.0011672141 0.000698353 -0.0011375998 0.00020277301 -0.0014172044 -0.0023963132
-0.001254463 0.00053949736 -0.0010061262 -0.0010942138 2.6074413e-05 -0.00011049536 -0.00031805254 0.00046292535
0.00058953726 -8.6106185e-05 -0.0010442158 -0.00020697818 -0.000791164 0.0007023071 -6.720642e-05 -0.0005443857
0.00038967445 -0.0004916862 0.00017744095 -0.0002072524 -0.00041504207 0.00031962508 -0.0008038482 -0.0015824088
-0.0005023016 -0.00040288008 -0.0005002136 -8.866988e-05 -0.0011739332 0.000453474 -0.0012498063 -0.0016935242
-0.0019217973 -6.470718e-05 -0.00019417728 -0.0011156725 -0.0015440418 -0.00066552975 0.0010989917 -0.0002559118
0.00056590256 0.00018709563 -0.00036646388 0.00048220565 0.0005171875 -0.0003124987 -0.00057529774 -0.00017690305
-0.0015113876 -0.00057167467 0.0012915106 -0.001795943 -0.0011616101 -0.00087792514 -0.00059819926 -0.00046402228
4.426182e-05 -0.00030879586 0.00016013638 -0.0011333723 -0.00041044413 0.00071649405 -0.0010454502 -0.0005549312
0.0007666392 -0.0013148525 -0.00057495397 -0.0013604921 0.0007887618 -0.0010383491 -0.001065873 -0.000759607
-0.00062684936 -0.0013612575 -0.00068945315 0.0005658309 -0.00079440174 -0.0005669541 0.00094344415 -0.0002251431
-0.001385446 -0.0012596891 0.00097851 -0.0005254513 -0.0005662224 0.00020377748 0.00087672303 0.00080839277
-0.002198275 -0.00086481724 -0.00028965427 0.00039024014 -0.0004847543 -0.0014488726 0.00090407894 -0.00035291622
-0.0014942237 -0.00014746764 0.00023967717 -0.0009625226 -0.0005784646 0.0013329675 -0.00050701585 0.0011043961
00000000: 3c14 f0ba b52e a7ba 5e9d 6e3a 613c b9b9
00000010: 081b 8538 100f 85ba e599 b6ba 2125 1eba
00000020: 621c 653a 1189 46ba e667 8c38 9d45 37b9
00000030: 0ef4 9aba ecae 24b7 941a 23bb 318a 77ba
00000040: ead4 9d38 42e0 46ba 35fd 98ba ad11 373a
00000050: 841b 95ba 779f 5439 7dc1 b9ba 770b 1dbb
00000060: cb6c a4ba 0e6d 0d3a fedf 83ba b96b 8fba
00000070: 60ba da37 bfb9 e7b8 4ac0 a6b9 cab4 f239
00000080: 2d8b 1a3a e893 b4b8 11de 88ba 4808 59b9
00000090: 1e66 4fba 081b 383a 2cf1 8cb8 1bb5 0eba
000000a0: 384d cc39 81e4 00ba 710f 3a39 e451 59b9
000000b0: 019a d9b9 5a93 a739 57b9 52ba d468 cfba
000000c0: e4ac 03ba a639 d3b9 c420 03ba 48f4 b9b8
000000d0: a9de 99ba 40c0 ed39 8ad0 a3ba 3ef9 ddba
000000e0: d1e4 fbba 67b3 87b8 119c 4bb9 c23b 92ba
000000f0: 7261 caba f276 2eba 0b0c 903a e62b 86b9
00000100: 1459 143a 1a2f 4439 f321 c0b9 8cd0 fc39
00000110: de93 073a ded6 a3b9 94cf 16ba 0d7f 39b9
00000120: c119 c6ba 70dc 15ba e847 a93a d965 ebba
00000130: 2b41 98ba 8f24 66ba 79d0 1cba 0448 f3b9
00000140: c4a5 3938 e1e5 a1b9 48ea 2739 aa8d 94ba
00000150: e130 d7b9 1ad3 3b3a 7d07 89ba cd78 11ba
00000160: 49f8 483a 2157 acba 82b8 16ba 8a52 b2ba
00000170: e9c4 4e3a 3719 88ba c3b4 8bba 5d20 47ba
00000180: 2653 24ba 396c b2ba 6bbc 34ba 4554 143a
00000190: 663f 50ba a59f 14ba 7751 773a 6414 6cb9
000001a0: db97 b5ba 271c a5ba 5941 803a 71be 09ba
000001b0: 8b6e 14ba 1aad 5539 e3d3 653a 52ea 533a
000001c0: ef10 10bb e7b4 62ba bddc 97b9 2599 cc39
000001d0: 9f26 feb9 19e8 bdba b6ff 6c3a 9d07 b9b9
000001e0: d4d9 c3ba 8ba1 1ab9 da51 7b39 cc51 7cba
000001f0: 1aa4 17ba f8b6 ae3a 42e9 04ba 62c1 903a

fc2.bias f4 [39]
-0.0013682815 0.0014670383 0.00031132967 0.0016651232 -0.0026031975 -0.0018129116 -0.0001206501 -0.00045423338
-0.00045007712 -0.0015029495 -0.0041576526 -0.0015529739 0.0005745953 -0.00094427227 -0.00021883535 -0.0004085885
-0.002576195 0.00057949836 -0.0008296876 -0.0015441336 -0.009017615 0.001141055 0.0011136502 -0.0013256986
-0.0019749433 0.0014314924 0.00080408866 0.0030619798 -0.0012020913 0.00068873353 -0.0014836098 0.0019473262
-0.002267308 0.0016868432 -0.00070207124 0.0021056507 0.002070389 0.0009925637 0.0029769877
00000000: e957 b3ba a349 c03a f639 a339 4340 da3a
00000010: 689a 2abb 389f edba 8705 fdb8 2c26 eeb9
00000020: 54f8 ebb9 9efe c4ba eb3c 88bb 288d cbba
00000030: 70a0 163a 0a89 77ba 2b77 65b9 d237 d6b9
00000040: 61d5 28bb 7ae9 173a 647f 59ba 8764 caba
00000050: 9ebe 13bc 748f 953a e6f7 913a 10c3 adba
00000060: 0d6e 01bb eaa0 bb3a 7ac9 523a 7fab 483b
00000070: 7e8f 9dba 208c 343a af75 c2ba 6d3d ff3a
00000080: 1e97 14bb 1119 dd3a 340b 38ba f5fe 093b
00000090: 5daf 073b e918 823a 9119 433b
